…
        "id": "3gT3iwkYq14X",
        "outputId": "ba2ca668-b484-48f6-c697-d4fd3a0642ca"
      },
      "execution_count": 117,
      "outputs": [
        {
          "output_type": "stream",
          "name": "stdout",
          "text": [
            "(2919, 120, 120, 16)\n",
            "Model: \"sequential_1\"\n",
            "_________________________________________________________________\n",
            " Layer (type)                Output Shape              Param #   \n",
            "=================================================================\n",
            " conv2d_1 (Conv2D)           (None, 120, 120, 16)      160       \n",
            "                                                                 \n",
            " max_pooling2d (MaxPooling2  (None, 60, 60, 16)        0         \n",
            " D)                                                              \n",
            "                                                                 \n",
            " conv2d_2 (Conv2D)           (None, 60, 60, 32)        4640      \n",
            "                                                                 \n",
            " max_pooling2d_1 (MaxPoolin  (None, 30, 30, 32)        0         \n",
            " g2D)                                                            \n",
            "                                                                 \n",
            " conv2d_3 (Conv2D)           (None, 30, 30, 64)        51264     \n",
            "                                                                 \n",
            " max_pooling2d_2 (MaxPoolin  (None, 15, 15, 64)        0         \n",
            " g2D)                                                            \n",
            "                                                                 \n",
            " conv2d_4 (Conv2D)           (None, 15, 15, 128)       401536    \n",
            "                                                                 \n",
            " max_pooling2d_3 (MaxPoolin  (None, 8, 8, 128)         0         \n",
            " g2D)                                                            \n",
            "                                                                 \n",
            " flatten (Flatten)           (None, 8192)              0         \n",
            "                                                                 \n",
            " dense (Dense)               (None, 232)               1900776   \n",
            "                                                                 \n",
            " dense_1 (Dense)             (None, 116)               27028     \n",
            "                                                                 \n",
            " dense_2 (Dense)             (None, 58)                6786      \n",
            "                                                                 \n",
            "=================================================================\n",
            "Total params: 2392190 (9.13 MB)\n",
            "Trainable params: 2392190 (9.13 MB)\n",
            "Non-trainable params: 0 (0.00 Byte)\n",
            "_________________________________________________________________\n"
…
